Flattened layer size is 6400
----------------------------------------------------------------
        Layer (type)               Output Shape         Param #
================================================================
            Conv2d-1           [-1, 32, 84, 84]           1,184
              ReLU-2           [-1, 32, 84, 84]               0
         MaxPool2d-3           [-1, 32, 42, 42]               0
            Conv2d-4           [-1, 64, 42, 42]          18,496
              ReLU-5           [-1, 64, 42, 42]               0
         MaxPool2d-6           [-1, 64, 21, 21]               0
            Conv2d-7           [-1, 64, 21, 21]          36,928
              ReLU-8           [-1, 64, 21, 21]               0
         MaxPool2d-9           [-1, 64, 10, 10]               0
          Flatten-10                 [-1, 6400]               0
           Linear-11                  [-1, 512]       3,277,312
             ReLU-12                  [-1, 512]               0
           Linear-13                    [-1, 4]           2,052
================================================================
Total params: 3,335,972
Trainable params: 3,335,972
Non-trainable params: 0
----------------------------------------------------------------
Input size (MB): 0.11
Forward/backward pass size (MB): 6.35
Params size (MB): 12.73
Estimated Total Size (MB): 19.18
----------------------------------------------------------------
None
Flattened layer size is 6400
…
